data.pth (torch, 4503 bytes, 6 tensors)

l1.weight f4 [8, 40]
000000 d7 ca 3e 3f 3d 60 bd be dd 3c 20 3f 9c 05 b0 be
       0.7452826 -0.36987486 0.6259287 -0.3437928
000010 71 4b 76 be 81 9a bd be 6b 26 85 3f 35 b2 83 be
       -0.24052216 -0.3703194 1.0402349 -0.257219
000020 16 e1 49 be 25 ff 0a 3f 80 00 64 be 83 6a d7 be
       -0.1971477 0.5429557 -0.22265816 -0.4207345
000030 8c 9e 18 bf 00 b7 a0 be b2 e4 bb bd 1c 64 54 3f
       -0.59616923 -0.31389618 -0.091744795 0.82965255
000040 9c e2 0f 3f 13 d4 d4 3e 3c 7d 7e 3e f4 d2 b9 be
       0.56205153 0.4156805 0.2485246 -0.36293757
000050 72 7d a2 be 5b 63 55 bf 15 68 29 bf f4 54 29 bf
       -0.31736332 -0.8335473 -0.6617444 -0.66145253
000060 6a b9 6c 3f d1 db 65 3f b4 4e 0f 3f 9b fc 0f 3e
       0.9247042 0.8978854 0.55979466 0.14061205
000070 05 0c 0b 3f a8 fa 5c 3e 2a a0 0e bf ef 73 d4 3e
       0.54315215 0.21579993 -0.5571314 0.414947
000080 84 a7 51 3f 1f e7 a2 be e0 1f 47 3f 55 14 ec 3d
       0.81896234 -0.31816956 0.7778301 0.115273155
000090 7e 8f 83 be de 7e 11 be 66 e7 45 bf b7 f1 b9 3c
       -0.25695413 -0.14208552 -0.7730621 0.022698266
0000a0 db 14 d2 3e 3e f3 b1 be e9 48 70 ba 03 c7 f4 be
       0.41031536 -0.34755892 -0.0009166138 -0.47808084
0000b0 73 43 46 be 85 df 0c 3f 9b 13 11 bf c6 c2 0f be
       -0.19361667 0.55028564 -0.5667054 -0.14039144
0000c0 a6 12 07 3f 98 94 83 3f 27 21 04 3f 3f b3 e4 be
       0.5276283 1.0279722 0.51613086 -0.44668004
0000d0 80 bf 30 3f 77 39 74 be 3b 14 87 be 2c 55 c1 be
       0.69042206 -0.23850046 -0.26382622 -0.37760293
0000e0 32 d2 12 bf 19 02 c5 bd 63 de b9 3d 81 f1 91 be
       -0.5735198 -0.09619541 0.0907562 -0.28504565
0000f0 60 1e 28 be 53 81 64 3f 6d 7b 1a bf 71 35 23 bf
       -0.16417837 0.89259833 -0.6034458 -0.6375342
000100 09 66 08 be 3e 1d 24 bf d9 a4 5e 3f 7a 33 17 bc
       -0.13320173 -0.6410712 0.8697029 -0.009228582
000110 a3 a8 f2 bd 55 9d c8 bd 7e d9 f7 3e 5f 67 94 3f
       -0.11848571 -0.09795634 0.4840812 1.1594046
000120 78 3e 3a 3f cd c8 27 be 42 61 cb 3e 3e a0 68 3f
       0.7275157 -0.16385193 0.3972264 0.9086951
000130 17 b8 8a be c3 17 5b be ee 8c d9 3e 3b ad 86 3f
       -0.27093574 -0.21395783 0.42490333 1.0521616
000140 63 43 f4 be 2c 44 23 be e3 15 95 3c 95 35 9b 3e
       -0.47707662 -0.15943974 0.018198913 0.30314317
000150 81 ae 08 3f f5 ae 05 bd 3f 76 03 be 2f fa a8 be
       0.5339127 -0.032637555 -0.12838076 -0.33003375
000160 f9 db 17 3e 2e c8 0c 3f 3a ab fd 3d bf a5 ae 3e
       0.14830007 0.5499295 0.123861745 0.3411083
000170 55 d0 2d 3f f2 6f d0 bd ec 2a ea bd e1 03 a7 be
       0.67896014 -0.10177602 -0.11433968 -0.32620147
000180 6c 78 e9 bd 71 fc d5 be d8 89 c9 bd 48 26 6c be
       -0.11399922 -0.4179416 -0.09840745 -0.23061478
000190 3c ea 50 3e a6 98 95 3e 6d b3 25 3f 73 4e 0e 3f
       0.20401853 0.29218024 0.64726907 0.55588454
0001a0 e9 c6 8c be b9 c3 e6 3e a2 ca 58 3a b3 12 c8 be
       -0.27495506 0.450712 0.0008269941 -0.39076766
0001b0 53 28 fb be ff f5 82 be 3f af a2 3e 55 52 9b 3e
       -0.49054202 -0.25578305 0.31774327 0.30336252
0001c0 4d 3d 11 3e c3 b7 ad 3e f7 73 17 bf b0 9d b4 3d
       0.1418354 0.33929262 -0.59161323 0.08819139
0001d0 97 0d 36 be 02 8c 7a bd 94 f0 b2 3c 69 6e 93 3e
       -0.17778622 -0.061168678 0.021843232 0.28795174
0001e0 4a 20 46 3f 50 12 6f be 1b 2a 12 3e 1b 85 00 3f
       0.7739302 -0.2334683 0.14273874 0.502031
0001f0 1d ee fa 3e 6b 79 f4 3e 30 95 26 be 4c 83 96 be
       0.4900979 0.47748885 -0.16267848 -0.29397047
000200 9c 19 32 3f 96 53 4f 3e dc 51 20 3f fa 6f 11 3f
       0.69570327 0.20246729 0.6262491 0.5681149
000210 2d b0 b4 3e 93 5c a5 be 95 da 5c be 1e c6 21 bd
       0.3529066 -0.3229719 -0.21567757 -0.03949558
000220 80 e2 8b be a6 01 de be f4 16 a3 3e 53 42 eb be
       -0.27321243 -0.43360633 0.3185345 -0.4594904
000230 44 39 7e 3e 8d d7 1d 3f 2e c8 e3 3e 88 a6 19 3f
       0.24826533 0.6165703 0.44488662 0.6001973
000240 ee 79 c3 bd de bc 06 bf 82 29 0f be 76 31 b0 bd
       -0.095447406 -0.5263194 -0.13980678 -0.08603184
000250 9b 44 da be f2 44 c4 be 9b 20 e8 3e 08 af 14 3e
       -0.42630467 -0.3833385 0.45337376 0.14519894
000260 c9 02 3d 3e 02 f7 ce 3e e9 68 59 3f ab 06 9c 3b
       0.18458094 0.40422827 0.84925705 0.004761537
000270 9a 02 8c be af 3c 79 bd ea 85 30 3f eb bb 24 3f
       -0.27345735 -0.060848888 0.68954337 0.6434924
000280 9c 8e 09 3f 8f 5d 6d 3d 2b b0 58 3f fa cc 01 3f
       0.5373323 0.057950553 0.8464381 0.50703394
000290 52 0c b8 3e 32 8f 11 3f c8 4e f8 bd a0 50 d2 3d
       0.359469 0.56859124 -0.12124401 0.10269284
0002a0 51 f1 3c 3f 83 59 90 be 33 b6 0f 3f 05 8b 79 3e
       0.7380572 -0.28193292 0.5613739 0.24369438
0002b0 c3 1c 9f 3e 2c 36 7a 3e 88 ac 2f 3e 7d 41 e5 3d
       0.3107663 0.24434727 0.17155659 0.111941315
0002c0 e0 f0 6d be 14 e8 04 bf 24 8f 40 3e 24 cb 7f 3e
       -0.23236418 -0.51916623 0.18804604 0.24979836
0002d0 85 93 92 3e af 32 34 3f e8 dd e9 3e 52 eb d5 3e
       0.28628173 0.7038984 0.45677114 0.41781098
0002e0 79 09 fa 3d 98 c4 3f bf 07 de bd be af 5f df 3e
       0.12208838 -0.74909353 -0.37083456 0.43627688
0002f0 e7 45 dd be 90 fb 89 be 53 ff 39 3f c0 f1 34 be
       -0.43217394 -0.2694974 0.7265522 -0.17670345
000300 17 81 00 be ba ea 06 3f cb f7 0b 3f d8 a8 bc be
       -0.12549244 0.52701914 0.5467498 -0.36847568
000310 bc 57 da 3d b6 0f 7b 3e fe 78 86 3f f4 c3 62 3e
       0.10661265 0.24517712 1.0505674 0.22145063
000320 e5 03 8c be 9c 44 ea be ac 43 89 3e aa cb d7 3e
       -0.2734672 -0.4575547 0.26809442 0.4214757
000330 66 95 f0 3e 84 bc 0c 3d 94 b6 c0 3e e6 f9 5f be
       0.46988982 0.03435947 0.37639296 -0.21872672
000340 dc 70 38 bc c0 e2 9b 3f e1 70 00 be 4b 18 d2 3e
       -0.0112573765 1.2178574 -0.1254306 0.4103416
000350 31 6a 28 bf 1e f9 d9 be 9c 4d d0 be d1 f4 69 3e
       -0.65787035 -0.42572874 -0.4068421 0.22847296
000360 d5 97 1b 3e 08 95 0e bf ce aa 00 3e 31 54 89 be
       0.15194638 -0.55696154 0.12565157 -0.26822045
000370 68 e5 fd 3e fc d0 18 bf 53 5a 21 3f bc e3 32 3f
       0.49589086 -0.59693885 0.6302845 0.69878745
000380 b8 90 c3 3e e2 79 9d 3f dc 17 41 3f f6 bf 4b be
       0.3819635 1.2302821 0.7542703 -0.19897446
000390 3f 30 e6 be 22 8b 0f bf 1b 1d f1 be 47 3a 93 3d
       -0.44958684 -0.56071675 -0.47092518 0.0718885
0003a0 21 a8 8d 3e 83 5b e5 3e 74 42 39 be d6 ac 19 be
       0.27667335 0.4479638 -0.18091756 -0.15007338
0003b0 ea 5d 12 be c2 ae 32 be 7e 0f dd be 97 ae 93 3e
       -0.14293638 -0.17449477 -0.43175882 0.2884414
0003c0 8b 0b 32 3f 37 20 23 be f1 f9 11 3f 23 be 42 3e
       0.69548863 -0.15930258 0.57022005 0.19017844
0003d0 21 c4 43 3e 40 e9 86 bb 83 8b 9d 3f 3b ed a0 be
       0.19117786 -0.004117161 1.2308201 -0.31430992
0003e0 08 96 ff bd 98 2a fa 3e 7a 5b 85 bd 20 f5 54 3d
       -0.12479788 0.4886062 -0.065115884 0.051991582
0003f0 c5 10 25 bf 72 5e 32 be 35 97 9f be 0c 13 59 3f
       -0.64478713 -0.1741884 -0.3117005 0.8479469

l1.bias f4 [8]
000000 1b 58 29 3f de 47 24 3f c0 24 61 3f ca b4 54 3f
       0.66150063 0.6417216 0.879467 0.8308836
000010 0a fe 70 3f c6 ba 86 3f 31 75 a2 3f 95 2c 2f 3f
       0.9413763 1.0525749 1.2692014 0.684274

l2.weight f4 [8, 8]
000000 55 9e 35 be 88 f8 8c 3f 7b f8 bc 3f b5 f6 db 3f
       -0.1773618 1.1013346 1.476333 1.7184664
000010 1a 1e 3a 3f ec 79 bc 3f b2 35 10 3d 4c 1a 03 bf
       0.7270218 1.4724708 0.035207458 -0.51212
000020 89 99 e6 3d f8 3f 20 be ce c9 40 be 67 95 1e be
       0.11259753 -0.15649402 -0.18826982 -0.1548668
000030 3e 31 20 bc 0e b6 7d be f3 6a 4d be 33 2c 1f 3e
       -0.009777365 -0.2477648 -0.20060329 0.15544204
000040 86 e4 40 be e4 2c 8e bd 10 e2 85 3e 52 0c b3 be
       -0.18837175 -0.06942156 0.26149035 -0.34970337
000050 4b 73 8b be f6 47 03 be 34 c1 e3 3d e5 65 c3 3d
       -0.272364 -0.1282042 0.11120835 0.09540919
000060 ec d8 88 bf bc 0d 69 be 71 05 bf 3e 43 06 b1 3f
       -1.0691199 -0.22759145 0.3730884 1.3830036
000070 70 9a e7 3f 11 5e 60 be 1d 2d d5 3d 6a da cf 3f
       1.8094006 -0.21910883 0.10408995 1.623853
000080 ce 39 60 bf ee e2 81 bf 2d 55 5e 3f e9 60 be be
       -0.875882 -1.0147378 0.8684872 -0.37183312
000090 39 91 9f 3e f3 74 81 3f 59 8b 16 3e 34 5c aa 3f
       0.31165484 1.0113815 0.14701594 1.3309388
0000a0 dd 64 9d 3f 20 d3 86 bf 38 7b c4 3d d4 3d ff 3e
       1.2296406 -1.053318 0.095938146 0.4985186
0000b0 04 f9 0a 3f af 3d c7 3f 00 fe e0 3f 03 1b 5d bf
       0.5428622 1.5565699 1.7577515 -0.8636934
0000c0 ed 95 11 bf f2 fa 22 bf 16 5f 48 3e ce 36 b2 be
       -0.56869394 -0.6366416 0.19567522 -0.34807438
0000d0 90 0f 01 bd 80 d6 d5 3d f9 2b fc 3d 1d 45 05 3e
       -0.031508982 0.10441303 0.123130746 0.13014646
0000e0 81 a8 3a bf d5 f4 77 bf ab a3 8e 3f e4 05 d1 3e
       -0.72913367 -0.9685796 1.1143698 0.40824807
0000f0 09 3a d0 3c 53 3d 91 3f 3b 20 b4 3d d1 45 4b bd
       0.025418298 1.134684 0.0879521 -0.04962713

l2.bias f4 [8]
000000 99 06 0f bd e8 70 ba be 34 af 0c be 6b d6 14 3f
       -0.0349184 -0.36414266 -0.1373871 0.58139676
000010 eb a5 06 3f c0 70 39 3f 4d be ed be e7 64 a0 be
       0.5259692 0.7243767 -0.4643425 -0.31326982

l3.weight f4 [9, 8]
000000 9e 02 3d be 20 20 a4 bd d6 b4 9f bd 72 32 0d 3e
       -0.1845803 -0.0801394 -0.077981636 0.13788775
000010 d7 d7 68 bf c3 c6 4d 3d 50 e6 c0 3d 75 04 8f bf
       -0.90954345 0.050238382 0.094189286 -1.1173235
000020 39 7e d5 bf 73 1e 72 be e8 20 86 be 06 9a 3d 3f
       -1.6679145 -0.23644428 -0.2619698 0.74063146
000030 1a c8 46 3f 9a 16 46 bf f1 69 66 bd ae 81 67 bf
       0.7764908 -0.7737824 -0.056253377 -0.9043225
000040 a8 90 b1 bf 1e 19 8c be a2 9c 0e 3e 1e 4f 65 bf
       -1.387227 -0.27362913 0.13926938 -0.8957385
000050 97 eb 41 bf 02 61 5d 3f 34 24 f2 3d 18 31 9e bf
       -0.75750107 0.8647615 0.118233114 -1.2358732
000060 2b 2d 30 3f 5a 86 17 be e3 c1 88 bd 4a fc 01 bf
       0.6881892 -0.14797345 -0.06677606 -0.5077559
000070 f2 84 16 bf 27 20 e4 bf eb a9 3a bd 57 13 97 be
       -0.5879661 -1.7822312 -0.045572203 -0.29506943
000080 03 d9 0e c0 de a3 06 be b8 e5 83 3d 8d a3 50 bf
       -2.2319953 -0.13148448 0.064403 -0.8149956
000090 c8 4e 18 bf 8b a3 3c 3f a2 f9 63 be 96 f2 57 bf
       -0.5949521 0.73687047 -0.22263196 -0.8435453
0000a0 4e 53 e4 3d d7 83 cd be d2 b2 b5 be 88 8a 41 3f
       0.111487016 -0.40139648 -0.35487992 0.75602007
0000b0 6f ad 1a bf 3d 91 c5 bf 49 0f 3e 3e 3b 5d 70 bf
       -0.6042089 -1.5434948 0.18560518 -0.9389226
0000c0 e6 cf c8 be 81 27 ae 3d d5 d3 ca bd c6 33 bc bf
       -0.39221114 0.085036285 -0.09903685 -1.47033
0000d0 d8 94 e1 3e cd 4e 53 3e 50 c1 33 3e c2 1d f7 3e
       0.4405887 0.20635529 0.17554212 0.4826489
0000e0 6c 72 3e 3f e7 10 95 be d6 a3 82 3e 21 d0 e1 bf
       0.74393344 -0.29114458 0.25515622 -1.7641641
0000f0 2c 9a af be 8c 49 22 bf 49 74 9a be c1 95 0c bf
       -0.3429731 -0.63393474 -0.30166844 -0.54916006
000100 32 a6 a6 be 83 ea 6a bd 19 cb 7e 3e db 0d 63 bc
       -0.32548672 -0.057352554 0.24882163 -0.013858284
000110 fd 66 e1 3e d7 d8 2b bf ef ab aa bb 57 46 70 3f
       0.44023886 -0.67127746 -0.0052084844 0.9385733

l3.bias f4 [9]
000000 19 14 5c be 82 4d 30 be 98 9b 66 bf cd 9c 93 3f
       -0.21492042 -0.17217067 -0.9008117 1.1532227
000010 ba 3d 63 3f 01 2c a9 be 39 d5 5d bf 60 d2 54 be
       0.8876606 -0.33041385 -0.86653477 -0.20783377
000020 5c ee c9 be
       -0.39439666
